…
8392nbgP","colab":{"base_uri":"https://localhost:8080/"},"executionInfo":{"status":"ok","timestamp":1662190655439,"user_tz":-540,"elapsed":477,"user":{"displayName":"‍조성우[ 학부재학 / 산업경영공학부 ]","userId":"07929875586727967845"}},"outputId":"7691659d-2bdb-4a1c-c355-1602fba1f227"},"outputs":[{"output_type":"stream","name":"stdout","text":["Model: \"sequential\"\n","_________________________________________________________________\n"," Layer (type)                Output Shape              Param #   \n","=================================================================\n"," conv2d (Conv2D)             (None, 298, 298, 16)      448       \n","                                                                 \n"," max_pooling2d (MaxPooling2D  (None, 149, 149, 16)     0         \n"," )                                                               \n","                                                                 \n"," conv2d_1 (Conv2D)           (None, 147, 147, 32)      4640      \n","                                                                 \n"," max_pooling2d_1 (MaxPooling  (None, 73, 73, 32)       0         \n"," 2D)                                                             \n","                                                                 \n"," conv2d_2 (Conv2D)           (None, 71, 71, 64)        18496     \n","                                                                 \n"," max_pooling2d_2 (MaxPooling  (None, 35, 35, 64)       0         \n"," 2D)                                                             \n","                                                                 \n"," conv2d_3 (Conv2D)           (None, 33, 33, 64)        36928     \n","                                                                 \n"," max_pooling2d_3 (MaxPooling  (None, 16, 16, 64)       0         \n"," 2D)                                                             \n","                                                                 \n"," conv2d_4 (Conv2D)           (None, 14, 14, 64)        36928     \n","                                                                 \n"," max_pooling2d_4 (MaxPooling  (None, 7, 7, 64)         0         \n"," 2D)                                                             \n","                                                                 \n"," flatten (Flatten)           (None, 3136)              0         \n","                                                                 \n"," dense (Dense)               (None, 512)               1606144   \n","                                                                 \n"," dense_1 (Dense)             (None, 1)                 513       \n","                                                                 \n","=================================================================\n","Total params: 1,704,097\n","Trainable params: 1,704,097\n","Non-trainable params: 0\n","_________________________________________________________________\n"]}],"source":["model.summary()"]},{"cell_type":"markdown","metadata":{"id":"PEkKSpZlvJXA"},"
…
